
{
    "timestamp": "2021-05-07 22:34:37.408571",
    "model": "Deep Learning CNN",
    "test_fold": "Fold 1",
    "frame_length": 400,
    "frame_step": 200,
    "fft_length": 400,
    "architecture": [
        "Model: \"sequential\"",
        "_________________________________________________________________",
        "Layer (type)                 Output Shape              Param #   ",
        "=================================================================",
        "resizing (Resizing)          (None, 32, 32, 1)         0         ",
        "_________________________________________________________________",
        "normalization (Normalization (None, 32, 32, 201)       403       ",
        "_________________________________________________________________",
        "conv2d (Conv2D)              (None, 30, 30, 32)        57920     ",
        "_________________________________________________________________",
        "conv2d_1 (Conv2D)            (None, 28, 28, 64)        18496     ",
        "_________________________________________________________________",
        "max_pooling2d (MaxPooling2D) (None, 14, 14, 64)        0         ",
        "_________________________________________________________________",
        "dropout (Dropout)            (None, 14, 14, 64)        0         ",
        "_________________________________________________________________",
        "flatten (Flatten)            (None, 12544)             0         ",
        "_________________________________________________________________",
        "dense (Dense)                (None, 128)               1605760   ",
        "_________________________________________________________________",
        "dropout_1 (Dropout)          (None, 128)               0         ",
        "_________________________________________________________________",
        "dense_1 (Dense)              (None, 3)                 387       ",
        "=================================================================",
        "Total params: 1,682,966",
        "Trainable params: 1,682,563",
        "Non-trainable params: 403",
        "_________________________________________________________________"
    ],
    "batch_size": 32,
    "epochs": 141,
    "learning_rate": 1e-05,
    "patience": 3,
    "training_time": 500.3813695907593,
…
